…
2022-03-09 06:43:06,743 - main.py[line:48] - INFO: n_behaviors: 4
2022-03-09 06:43:06,743 - main.py[line:49] - INFO: n_interactions: 3338068
2022-03-09 06:43:06,744 - main.py[line:50] - INFO: Namespace(Ks='[1, 3, 5, 7, 10]', batch=258, batch_test_flag=True, behNum=4, cuda=True, data='beibei', dim=64, epoch=200, gpu_id=0, interactions=3338068, item=7977, lr=0.01, ls=0.5, n_hops=2, out_dir='./save/', save=True, save_path='tem', shuffle=True, test_flag='part', user=21716, weighted=True)
2022-03-09 06:43:13,672 - main.py[line:62] - INFO: MBRec(
  (Rconv): RGCNConv(
    (activate): LeakyReLU(negative_slope=0.01)
    (project): Linear(in_features=64, out_features=64, bias=False)
    (Ws): ModuleList(
      (0): Linear(in_features=64, out_features=64, bias=False)
      (1): Linear(in_features=64, out_features=64, bias=False)
      (2): Linear(in_features=64, out_features=64, bias=False)
    )
  )
  (FC1): Sequential(
    (0): Linear(in_features=192, out_features=64, bias=True)
  )
  (FC2): Linear(in_features=64, out_features=64, bias=True)
  (conbine): Sequential(
    (0): Linear(in_features=64, out_features=64, bias=True)
    (1): LeakyReLU(negative_slope=0.01)
    (2): Linear(in_features=64, out_features=1, bias=True)
  )
  (drop_out): Dropout(p=0.2, inplace=False)
  (activate): LeakyReLU(negative_slope=0.01)
  (layernorm): LayerNorm((64,), eps=1e-05, elementwise_affine=True)
  (projects): ModuleList(
    (0): Linear(in_features=64, out_features=64, bias=False)
    (1): Linear(in_features=64, out_features=64, bias=False)
    (2): Linear(in_features=64, out_features=64, bias=False)
  )
)
2022-03-09 06:43:13,674 - main.py[line:68] - INFO: start training ...
2022-03-09 06:43:39,463 - main.py[line:132] - INFO: using time 25.7855, training loss at epoch 0: 41.5468
2022-03-09 06:44:48,774 - main.py[line:114] - INFO: +-------+-------------------+-------------------+-------------------+--------------------------------------+----------------------------------------------------------+----------------------------------------------------------+--------------------------------------+-----+
…
