…
2022-03-09 18:53:44,127 - main.py[line:48] - INFO: n_behaviors: 5
2022-03-09 18:53:44,127 - main.py[line:49] - INFO: n_interactions: 7658926
2022-03-09 18:53:44,127 - main.py[line:50] - INFO: Namespace(Ks='[1, 3, 5, 7, 10]', batch=258, batch_test_flag=True, behNum=5, cuda=True, data='Tmall', dim=64, epoch=200, gpu_id=0, interactions=7658926, item=99037, lr=0.01, ls=0.5, n_hops=2, out_dir='./save/', save=True, save_path='tem', shuffle=True, test_flag='part', user=147894, weighted=True)
2022-03-09 18:53:49,528 - main.py[line:62] - INFO: MBRec(
  (Rconv): RGCNConv(
    (activate): LeakyReLU(negative_slope=0.01)
    (project): Linear(in_features=64, out_features=64, bias=False)
    (Ws): ModuleList(
      (0): Linear(in_features=64, out_features=64, bias=False)
      (1): Linear(in_features=64, out_features=64, bias=False)
      (2): Linear(in_features=64, out_features=64, bias=False)
      (3): Linear(in_features=64, out_features=64, bias=False)
    )
  )
  (FC1): Sequential(
    (0): Linear(in_features=256, out_features=64, bias=True)
  )
  (FC2): Linear(in_features=64, out_features=64, bias=True)
  (conbine): Sequential(
    (0): Linear(in_features=64, out_features=64, bias=True)
    (1): LeakyReLU(negative_slope=0.01)
    (2): Linear(in_features=64, out_features=1, bias=True)
  )
  (drop_out): Dropout(p=0.2, inplace=False)
  (activate): LeakyReLU(negative_slope=0.01)
  (layernorm): LayerNorm((64,), eps=1e-05, elementwise_affine=True)
  (projects): ModuleList(
    (0): Linear(in_features=64, out_features=64, bias=False)
    (1): Linear(in_features=64, out_features=64, bias=False)
    (2): Linear(in_features=64, out_features=64, bias=False)
    (3): Linear(in_features=64, out_features=64, bias=False)
  )
)
2022-03-09 18:53:49,529 - main.py[line:68] - INFO: start training ...
2022-03-09 18:54:19,727 - main.py[line:132] - INFO: using time 30.1870, training loss at epoch 0: 51.0478
2022-03-09 18:55:08,136 - main.py[line:114] - INFO: +-------+-------------------+--------------------+--------------------+--------------------------------------+----------------------------------------------------------+----------------------------------------------------------+--------------------------------------+-----+
…
